model/checkpoint.pth (torch, 104648 bytes, 7 tensors)

fc1.weight f4 [100, 49]
00000000: 4e3f 283f 87d9 843f 724e e9bd 039b efbe
00000010: 86c4 233f deb3 4e3f dda0 9f3e cf07 f13e
00000020: 9341 703e 110b 7d3f 82f4 953f df2a 4e3f
00000030: 2c3c f93e 9f6a 863f fe93 833e 8c86 313f
00000040: 0a05 e93e 2df6 dc3f afab 143f 9db7 e13e
00000050: b393 44be 37ef aa3f 7cd8 c43e 6492 593e
00000060: adb0 52be 2dd4 833f cea2 eb3d 3983 07bf
00000070: 9a59 b7bd 8042 f6bd 7f42 d73c 2043 fd3d
00000080: 5262 423e 306c d7be c1c1 7b3e 7b7f 1340
00000090: 533e 7e3d 46e0 703e 47e8 ae3e 0263 853f
000000a0: 856a 83be cef2 22bf 884f 453f d27a 85be
000000b0: 4c6e 213f 8b43 183f f39e f8be 97f9 363f
000000c0: 8192 0340 92f4 8fbe 496e 933d b67b a4be
000000d0: 6266 0ebf cc96 2bbd e48f a63d bcdc 01be
000000e0: 7545 f33d 0a74 2dbe 6df7 a93e f49d 8a3e
000000f0: a96c 493d f927 91be 723f 463f 9c91 8b3d
00000100: 7d37 4abf f282 85bf 9998 e73e e455 18be
00000110: 41f8 24be 2a7a 9abe bd19 163f dd1b 7c3c
00000120: d0e9 ae3e 3a5a ffbe b681 0b3f 3584 193e
00000130: bb12 12bf 2140 36be 260b a03e 9f84 f0bd
00000140: 2568 69bf d409 89be 0543 cebe de66 5dbf
00000150: d328 3f3f 2e11 24bf 8d90 443d b4f3 47bf
00000160: d1b7 3bbe e0d6 13bf 8d10 d6be 3979 b0bd
00000170: a4ad b6be 4792 c6bd de63 0cbf 3803 41bf
00000180: f6bf 86be 5dcd 903f 5771 4fbd 978b 0dbe
00000190: 058c a7bd bc2b 123d 4078 9abc 9e5f d4bd
000001a0: b89b 5b3b a3d9 c7bd 7537 f8bd b01b a1bd
000001b0: f207 00be 974a babd 7f3a 123e a509 dd3c
000001c0: 4551 343d 3b70 08be 3c27 c0bd aac4 42bd
000001d0: b7ff b63c 4db8 00be 4e1f 7cbd 4127 afbd
000001e0: 0190 cf39 cabb 59bd 1331 22bc 4e41 c6bd
000001f0: d3d1 c8bd ccaf aabd fc4a 48bd caeb e6bd
00000200: f54f f53d 7842 e8bc 3eba fb3d ee51 363d
00000210: a5bf f7bd 4178 ca3d c0ff 20bd ee4c 60bd
00000220: dcda f2bd 776e 11be 656a 273d 4aa4 ffbc
00000230: 45cf 633d 4a1a f0bd ac36 d93d 5ec3 d6bd
00000240: c113 cabc ee6f f43c 600a 973d 18f5 13c1
00000250: 67d9 17c0 21b7 33c0 d033 a0c1 601a df3e
00000260: adb2 d7bf 74ad 76c1 491a 52bf 6243 2bc0
00000270: db4f 4cbf 9719 1fc0 f4bf cfbf 0334 76c1
00000280: bd50 93bc 16df 94bd e4f3 7fc0 040e aec1
00000290: ac9e e8bd 7a7c fbbd 382d 84bf ad93 22c0
000002a0: 5c24 29be 38c0 3bbe 5f2c b6bf c22f 6ac0
000002b0: c216 48bd 8401 0dbe 19ad 34c0 0b59 93c1
000002c0: 2e53 0fbe 7da6 92c1 60d6 793f 9809 33be
000002d0: 93ce 2dc0 e7f0 96c1 4887 1b40 565e 91c1
000002e0: 44c2 093d b241 92c0 7375 6bc1 79b0 fdbf
000002f0: 5711 a1c1 5cdb c7bf bf96 b4c1 687b 16c1
00000300: 4b34 afc0 ef47 80be bc90 2ec0 7af5 a640
00000310: a8af c23e 724c 903e eba7 8dbd c0c1 acbe
00000320: 03e6 6e3e 4192 2c3e af52 183f 4ae5 ee3d
00000330: 98c5 9f3e 84c4 af3d 93e9 da3e bb0e bf3d
00000340: fb37 db3e 1a1c 193f 9b37 d63e 60e0 5bbf
00000350: 8248 83bf 1100 753e 73b8 363e 636e ae3d
00000360: 371d 4c3e b866 ad3e 70b9 8c3e a1ae 53bd
00000370: 6245 623e 4fd5 2c3f c653 743e 0831 a9be
00000380: 09d0 11be b738 eb3e 1ba7 af3d dbe8 033f
00000390: 3cbd 1b3e df60 e3be 5ad6 dabe b79a 0b40
000003a0: 781e 48be 8fec bd3e 9627 323d 58df 3c3e
000003b0: 1a46 103f 098c 03bf 11c3 023e 288a fcbe
000003c0: 168d df3e 8a04 99be 8ff3 a23b 3c71 debc
000003d0: c6ef 853f e11a 8e3f 9a84 883f 02da c4be
000003e0: da3e 3e3e 0d24 ab3f 84f1 a53f 8930 c9bf
000003f0: e369 933e 60b3 6dbf b523 afbf f423 bd3e
0.65721595 1.0378884 -0.113919154 -0.46797952 0.63971746 0.80743206 0.31177416 0.4707627
0.23462515 0.9884501 1.1715243 0.80534166 0.4867872 1.0501288 0.25698847 0.6934593
0.45511657 1.7262627 0.5807447 0.44085398 -0.19196968 1.3354253 0.38446414 0.2124725
-0.20575209 1.0299126 0.11505662 -0.52934605 -0.08952637 -0.120244026 0.026276825 0.12366319
0.18982819 -0.42074728 0.2458563 2.3046558 0.062071156 0.23523054 0.3416159 1.042084
-0.25667205 -0.6365174 0.7707448 -0.26070267 0.63058925 0.5947806 -0.4855877 0.71474594
2.055817 -0.2811628 0.071987696 -0.32125634 -0.55624974 -0.041891858 0.08132914 -0.1268186
0.11878482 -0.16938797 0.33196583 0.27073634 0.049175892 -0.2835081 0.7744056 0.06814882
-0.7899092 -1.0430586 0.4523361 -0.14876515 -0.16110326 -0.3017133 0.58633024 0.0153875025
0.3416276 -0.49873525 0.544948 0.14991839 -0.5705983 -0.177979 0.31258506 -0.117440455
-0.91174537 -0.2676531 -0.40285507 -0.8648509 0.7467167 -0.64088714 0.047989417 -0.78106236
-0.18331839 -0.5774975 -0.41809502 -0.086168714 -0.35679352 -0.09695869 -0.54839885 -0.75395536
-0.2631833 1.1312672 -0.0506452 -0.1382278 -0.081810035 0.03568624 -0.018856168 -0.103698
0.0033509564 -0.09758308 -0.121199526 -0.07866609 -0.12503031 -0.09096258 0.14280127 0.026982138
0.044022817 -0.13324063 -0.09382483 -0.047550835 0.022338731 -0.12570305 -0.061553292 -0.08552409
0.00039589408 -0.053157605 -0.0098993955 -0.09680425 -0.09805646 -0.08334312 -0.048899636 -0.11275442
0.11978141 -0.028352007 0.12291382 0.044511728 -0.120971 0.09886218 -0.039306402 -0.054760866
-0.1185815 -0.14202295 0.04087295 -0.031206269 0.05561759 -0.11723764 0.10606131 -0.10486482
-0.024667623 0.029838528 0.07375026 -9.247337 -2.3726442 -2.8080523 -20.0253 0.4357481
-1.6851403 -15.417347 -0.8207136 -2.6759877 -0.7980935 -2.4859369 -1.6230454 -15.387698
-0.017982835 -0.07269113 -3.999261 -21.756844 -0.11358389 -0.122796014 -1.03263 -2.5402634
-0.16517776 -0.18335044 -1.4232291 -3.659165 -0.04884983 -0.1377011 -2.823065 -18.418478
-0.13996574 -18.331293 0.97592735 -0.17484128 -2.7157333 -18.867628 2.430132 -18.171062
0.03363253 -4.5705194 -14.716174 -1.981948 -20.133467 -1.5613818 -22.573606 -9.4051285
-5.4751334 -0.2505488 -2.727584 5.2174654 0.3802464 0.28183323 -0.069167934 -0.3374157
0.2332993 0.16852666 0.59501165 0.11664827 0.3120544 0.08582404 0.42756328 0.093289815
0.42816147 0.59808505 0.418393 -0.85889244 -1.0256503 0.23925807 0.178438 0.08517148
0.1993302 0.3386743 0.27485228 -0.05168021 0.2209678 0.67512983 0.23860082 -0.3304522
-0.14239515 0.45941707 0.08576795 0.51527184 0.15208906 -0.44409844 -0.42741662 2.181318
-0.19542873 0.37094542 0.043494783 0.18444574 0.56356966 -0.5138555 0.12769724 -0.49324155
0.43662328 -0.29886276 0.004972882 -0.027153604 1.0463798 1.1101953 1.0665467 -0.38447577
0.18578663 1.3370377 1.296433 -1.5717937 0.28791723 -0.9285183 -1.3682772 0.36941493

fc1.bias f4 [100]
00000000: d425 51bf 4609 bcbe 0a63 e3bc 2f76 853e
00000010: 3ca9 bcbe b2e4 75be 7382 aabe 17d3 bfbd
00000020: 6264 f7bc 6e8b 63be ff0e 1dbf 7f81 e7be
00000030: ec12 9fbe 32fe 583d 5ac8 a1be 178c 18be
00000040: 8d65 2ebe 69c8 14be 3c9f 743c 0af4 babd
00000050: 2b31 50be 3997 acbe a041 c8bd 53dd f8be
00000060: 3379 f2be 9b64 78be 8248 aebf c6ee dabd
00000070: 5445 c1be 7631 c5be fabe b13e 0adb 20be
00000080: 4d74 8cbf c4a9 c7bd 1690 88be 8fa4 513e
00000090: 2d19 13bd e46b 5abf 5034 40be 16bc eebd
000000a0: fd5c bebe 7907 17bf a4ec 52bd 5ada 0e3f
000000b0: 389e 8cbd b9b3 e8be cc36 06bf c079 2abf
000000c0: 62d3 2dbd 67bf 0bbe 5bb4 e2be 91d8 95bf
000000d0: 16ca 4cbf eaf7 08bd 408b 17bd 74f2 7d3d
000000e0: c806 083f 3e79 2fbe 46bc 893e 9212 98bf
000000f0: d5c6 16be 5482 093f e3a7 533a 8f13 34be
00000100: 00b6 b93e 5aa8 2bbf 8923 0dbe 0ebf 773e
00000110: 60dc 71bc b90d a2bd c7e2 0bbe b30f 90bb
00000120: 150a 00bf 6faa 93bf 204f 6fbe dbe1 47be
00000130: 537a 74bf 6279 733d 5888 96bd 5fbb fdbc
00000140: cc4c bcbf 4cb4 53be 2166 46be a3ef 22be
00000150: 615f b3be 3778 98be a184 963f c89b 8fbe
00000160: 9980 4a3d 582d 4abf c176 28be 54a9 c9be
00000170: f113 c3be 74a5 00bd bc80 81be 19bb 4bbe
00000180: 5da2 babe da44 83be 94ac 90be 799b 43bf
-0.81698346 -0.36725825 -0.027757186 0.2606673 -0.36847866 -0.24013022 -0.3330265 -0.09366434
-0.030199233 -0.22221157 -0.6135101 -0.45215985 -0.31069124 0.052976795 -0.3159817 -0.1489719
-0.17030926 -0.14529575 0.014930543 -0.09128578 -0.20331256 -0.33709124 -0.09778142 -0.48606357
-0.47358093 -0.24257128 -1.3615878 -0.10690074 -0.37748206 -0.38514298 0.34716016 -0.15708557
-1.0972992 -0.09749177 -0.2667243 0.2047293 -0.03591268 -0.8532088 -0.18769956 -0.11656968
-0.3718032 -0.5899578 -0.05149521 0.5580193 -0.06866115 -0.45449618 -0.52427363 -0.66592026
-0.04243792 -0.13647233 -0.44278225 -1.1706716 -0.7999586 -0.033439554 -0.036998034 0.0619988
0.5313535 -0.17136094 0.26901454 -1.1880667 -0.14724286 0.5371449 0.00080740283 -0.17585586
0.36271667 -0.6705376 -0.13783087 0.24193975 -0.014762014 -0.07912774 -0.13660727 -0.0043964027
-0.50015384 -1.1536387 -0.23370028 -0.19519751 -0.9549915 0.05944193 -0.07350224 -0.030973135
-1.4710937 -0.20674247 -0.19374897 -0.15911727 -0.35033706 -0.29779217 1.1759225 -0.2804854
0.049439047 -0.7897544 -0.16451551 -0.39387 -0.38101152 -0.03140779 -0.2529353 -0.19895591
-0.36451998 -0.25638467 -0.28256667 -0.7640911

fc2.weight f4 [100, 100]
00000000: b072 4a3f 74de 913e fa7f 333d e31b bdbe
00000010: 8efd c13d b5b3 9e3e 6e28 cd3b aa04 1cc0
00000020: dfe6 a5bf dd5e ecbd 98a7 773f a171 233f
00000030: cf8c 8d3f 244b c93f 4560 b33f 3405 3e3d
00000040: 81e4 003e aeec 1ebd 3204 d63e e753 f83b
00000050: 0372 5c3e be7e 3cbd 49a1 cabe cce0 11bf
00000060: c78a c83c 86ec 343e 02b5 c43f 0851 893e
00000070: c8bc 273e 6ece 293d 8680 16c0 87ae ba3d
00000080: f83b ff3e 7b89 753d f2b6 10be 18f5 c33e
00000090: 7b92 e93f 9c5f 603e 7b7c aabd cd05 dbbc
000000a0: 5c17 11bf d4b2 1b3d 4725 f5be fc99 8dc0
000000b0: addc e9bd 85f7 e83e f7fa 1c3d 3854 b13f
000000c0: 8e9f 903f 4248 f53e 20ae d53f df32 a33f
000000d0: 938a 39be 132a 9bbe 4019 a1bd bf8a db3f
000000e0: 764e 10be f6cb 9d3d d4d9 cdbf 526a 783f
000000f0: 79e0 87bd 546a 68bb a141 7dbd ff4d 203e
00000100: 122c eebf fe94 e03e 1637 413c 6510 09c1
00000110: ca70 e4bf 970b b23b 9a67 063c 65f2 153f
00000120: 64f3 1f40 46ec 553f 2a16 4abc e980 e93d
00000130: f67d f03e 6ffc 6bbf b7d5 2dbf 6a9d ab3f
00000140: d60f 9f3e 1614 873e 0950 b2bd cd2c 8fbc
00000150: 07a9 a43f 8b14 74be b9c3 703f a2d8 71bf
00000160: f4e3 3140 ae5f ff3c 0d48 883d 71e0 1b3f
00000170: 99f5 8c3f d215 173e 4fb8 2bbe 56a6 4c3e
00000180: f9c2 a43f 0294 3f3e 324c 94bf f551 bebd
00000190: a9ea e33e 6df2 f43e c06c 8abc 187d 98bc
000001a0: 1d7b 2b3e e024 263f de7d ae3e c19b 27bf
000001b0: ba60 21be 08f0 233a 5638 873f b742 51be
000001c0: 1bdd 19bc 9ae5 e13f 0144 c93e fae4 d6bc
000001d0: c856 ec3d 0b1c 833d 9eff 85bd dad4 683c
000001e0: 1296 223c 1287 bfbe 3ace 4cbd f1eb 5e3f
000001f0: 813c 923d 3baa 8e3d b061 143f 762e 22bc
00000200: a51a 46be bbee 2b3f f4dc e1be ea8f a9bd
00000210: 931f cb3e 533c 943b a0ce 8e3c 08d1 23be
00000220: 5fe9 42be cfcc 1e3f 9f51 b83d a73c fd3d
00000230: 04d8 a63d 8e72 08be 1bd1 ea3e a3bd 99be
00000240: aefa f53a 708a 00be 5253 f5be 169d a73f
00000250: 90fe 7b3f df20 923f 0bf1 a43f c3d4 3f3f
00000260: a7ed 613e 4821 ab3e 332b 97ba ddf6 d03f
00000270: b379 e0be 0b97 323d 1423 d23e a3fe 8b3e
00000280: 3320 823e 5008 a7bf dbe2 22bf 8482 d73d
00000290: cde3 59bc 055c d93e c35b eabd f99d 403f
000002a0: 1b76 cd3e 8156 18bd d822 b63d 810e 2abf
000002b0: 7a4f d03f 01ec b83e 237e 5d3d 92a4 c73d
000002c0: 2b3e ee3e e22d de3e 2ef8 fbbe 12ed 44bf
000002d0: 0f00 4c3f cee6 4ebf 6a34 583d 3a42 5bbd
000002e0: 6b35 873f 3fb1 de3e c308 79be 5ca4 54bf
000002f0: 42ce 1440 4759 94be 9a3b 15bb fb10 60be
00000300: d5d4 e43f 995d 093e 9f8d b0bd 5ddd 843e
00000310: 44ee f83e fd78 623c 48f4 d7be bab0 3a3d
00000320: 3463 86be 7187 a83e dd86 a73d 1e92 d1bd
00000330: 08a2 97bd 5d83 08be b21c fdbc 1157 82be
00000340: a73a bcbd e3cd c7bd 7245 7d3e 9cae 77bd
00000350: eb97 513c f3b3 9cbe 02e3 993e bb17 b13d
00000360: 5b7e 0b3e ac65 37bd 3c8a 85be b78b 16bd
00000370: b6be e4bd 82a0 513d 5168 5c3e f71c 00bf
00000380: 8a9d adbd 5c42 ec3d 3014 f5be 4dc0 fbbe
00000390: 966e d5bd e874 8fbe 67d6 12be 902c b23c
000003a0: 9d8a 80bc a5ae dfbe 641a c9bd ea3b 00bf
000003b0: a176 f7bd 46ab 1e3d 77c7 67bd ba74 bfbc
000003c0: af5e 8a3e 9383 343d c761 19be 0ae8 52bd
000003d0: 4cf0 873d 8ed3 1abe 03fe c33d b1d1 4bbf
000003e0: 9862 12bc db60 f6be f490 10bf 5d43 873d
000003f0: 779e ec3d 69b4 30bf 5b64 9a3d 9251 a7bc
0.7908125 0.2849003 0.04382322 -0.36935338 0.0947219 0.3099648 0.006260923 -2.4377847
-1.2961081 -0.11541531 0.967401 0.6384526 1.1058596 1.5726056 1.4013754 0.04639168
0.12587167 -0.038799934 0.41800076 0.0075783613 0.21527867 -0.04601931 -0.39576176 -0.5698364
0.024480237 0.17668352 1.5367739 0.26819634 0.16380608 0.041456632 -2.3515944 0.0911532
0.4985044 0.059945565 -0.14132288 0.3827293 1.8247827 0.21911472 -0.08324524 -0.026736164
-0.5667627 0.03801234 -0.47880003 -4.425047 -0.11419044 0.45501342 0.038325276 1.3853827
1.1298692 0.4790669 1.6693764 1.27499 -0.18119268 -0.30305538 -0.07866144 1.7151717
-0.1409243 0.07704918 -1.6082101 0.9703723 -0.06634612 -0.0035463767 -0.061830167 0.15654753
-1.8607199 0.43863672 0.011792919 -8.566503 -1.784692 0.0054335105 0.0082034115 0.5857299
2.4992304 0.8356365 -0.012334386 0.11401541 0.469711 -0.9218206 -0.6790423 1.3407414
0.3106677 0.26382512 -0.08706672 -0.017477417 1.2864083 -0.23835962 0.9404865 -0.9447118
2.7795382 0.031173553 0.066543676 0.60889345 1.101245 0.14754418 -0.16769527 0.19985327
1.2872001 0.18708804 -1.1585753 -0.09292976 0.4451497 0.47841206 -0.01689756 -0.018614337
0.16746183 0.64900017 0.34080404 -0.65472037 -0.15759555 0.0006253724 1.0564067 -0.20435606
-0.009391095 1.7648194 0.39309695 -0.026232231 0.1153999 0.06401833 -0.06542896 0.014210904
0.009923475 -0.37407738 -0.05000136 0.8707877 0.071404465 0.06966063 0.5796156 -0.009898772
-0.19346102 0.6716115 -0.44113886 -0.082794026 0.39672527 0.004523793 0.01743251 -0.15997708
-0.19034337 0.62031263 0.08999943 0.12365084 0.081466705 -0.13324949 0.4586266 -0.30027494
0.0018766725 -0.1255281 -0.4791513 1.3094814 0.98435307 1.1416281 1.288606 0.74934024
0.22063313 0.3342383 -0.001153326 1.6325337 -0.4384285 0.043601077 0.41042387 0.2734271
0.2541519 -1.3049412 -0.63627404 0.10522941 -0.013298941 0.42453018 -0.114432834 0.7524105
0.4012917 -0.03719187 0.08893365 -0.6642838 1.6274254 0.36117557 0.05407537 0.09748186
0.46531805 0.4339438 -0.49212784 -0.7692424 0.7968759 -0.8082093 0.05278436 -0.053529955
1.0563177 0.43494603 -0.24319749 -0.8306329 2.325089 -0.28974363 -0.002277112 -0.21881478
1.7877451 0.13414611 -0.08620762 0.25950137 0.48619282 0.013822791 -0.4217856 0.045578696
-0.2624756 0.32915834 0.0818002 -0.10232948 -0.07403952 -0.13331361 -0.030897472 -0.2545705
-0.091908745 -0.09756067 0.24733523 -0.060469255 0.012792568 -0.3060604 0.30056006 0.08647104
0.1362242 -0.044774696 -0.26082027 -0.036754336 -0.11169188 0.051178463 0.21524169 -0.50044197
-0.08477314 0.115360945 -0.47866964 -0.4917015 -0.10421483 -0.2801888 -0.143396 0.021749765
-0.015691096 -0.4368793 -0.09819487 -0.5009142 -0.120831735 0.038737558 -0.05658671 -0.02337109
0.27025363 0.04407079 -0.14978705 -0.05149082 0.0663763 -0.15119764 0.09569933 -0.7961684
-0.008934639 -0.4812077 -0.5647118 0.066046454 0.11553662 -0.69025284 0.075386725 -0.020424638

fc2.bias f4 [100]
00000000: 5157 f73e 0224 80bf f230 12be 02d0 12bf
00000010: 3fb7 21be 969b 89bf 79e9 c03e a214 21bf
00000020: fc7a 21bf 672b 49bf 6296 bfbd 3bb7 ccbf
00000030: 03b8 c8bf 4fae 253d 0d9a 07bf 1f9f 163f
00000040: 5c06 ce3e be3c 99bf 7a4a 47be ae2b 093e
00000050: 21ce d8bd d211 f5bd 01c8 4cbf 9be7 f13e
00000060: b7d4 d4be 0ceb 153f 2d95 20be 1a83 90bf
00000070: 4d2a 60be 2e12 97bf 1c78 cc3d f1bf 703e
00000080: 9391 e2be dfd5 abbf 19fc 70bf d9c6 38bd
00000090: 7005 493e 9d45 53be 7b89 07be 8911 35be
000000a0: 4138 bfbf cdf8 97bf 3355 99bf 2d38 f5be
000000b0: ad99 193f d4bb 543e 693f 56bd c6ce 8cbe
000000c0: e3ef bcbd a477 333e 63b9 69bd 8777 ca3e
000000d0: a15e d23e fede 90be 58e4 28be 6d4c 56bf
000000e0: 711f 2bbf d2f4 b4bf 4e7b 88bf 00bc 9ebe
000000f0: f2f6 79be a83d dc3e 66dc debd 0293 ccbe
00000100: 480a 66bf 04e1 2bbe cb0d 0b3e ad94 883d
00000110: df2f cc3d fc81 09be a26d c3bf 669c a3bc
00000120: 915b a0bf 348a 34be e2a7 1cbe d6fe ac3e
00000130: 4d65 9bbd b8cb 4abf 58a1 e43e 1023 143e
00000140: 5cdf 73bd 2f13 c2be 2d2f f23e e811 63bf
00000150: 3224 a4bd a552 fc3d 0093 0bbe 76bb fd3d
00000160: 264c a9be 3314 8abf 7bea 193f 8454 aa39
00000170: fb0f 5dbf 4284 15be 76cb 383e db56 d9bd
00000180: bd9f 10be 609e 2dbd f547 03be 0ab7 c73e
0.48308805 -1.0010989 -0.14276484 -0.57348645 -0.15792559 -1.0750606 0.37678126 -0.6292211
-0.63078284 -0.7858185 -0.09354855 -1.5993418 -1.5681156 0.040449437 -0.5296944 0.5883655
0.40239227 -1.1971662 -0.19462004 0.13395569 -0.10586191 -0.119662896 -0.7999268 0.47247013
-0.4156854 0.5856178 -0.15681906 -1.1290009 -0.21891136 -1.1802423 0.099838465 0.2351072
-0.4425169 -1.3424643 -0.9413467 -0.04511151 0.1963098 -0.20632024 -0.13236038 -0.1768247
-1.4939042 -1.1872803 -1.1979126 -0.4789442 0.60000116 0.20774776 -0.052306566 -0.27501506
-0.09225442 0.17526108 -0.057061564 0.39544317 0.4108782 -0.2829513 -0.16493356 -0.83710366
-0.6684485 -1.4137213 -1.066263 -0.31002808 -0.24410608 0.4301579 -0.108818814 -0.39955908
-0.8985944 -0.16785055 0.1357948 0.06668983 0.09970068 -0.13428491 -1.5267832 -0.019972038
-1.2527944 -0.17630845 -0.15298417 0.33788174 -0.07587681 -0.792171 0.44654346 0.144665
-0.059539184 -0.3790526 0.47301617 -0.886992 -0.08014716 0.12320451 -0.13630295 0.12389271
-0.3306591 -1.0787414 0.60123414 0.00032487896 -0.8635251 -0.14601234 0.18046364 -0.106122695
-0.14123435 -0.042387366 -0.12820418 0.39006835

fc3.weight f4 [100, 100]
00000000: 0e5b be3f 7da3 953e a8d9 8dbe b31c 3cbf
00000010: 3fb0 cabc 53cf 1b3f e39e 483f bb35 3e3d
00000020: 5438 82be 121e e53c de92 96bd 142d af3d
00000030: 21fc b4be 2a64 403f 4eb5 273f a882 8f3f
00000040: 93bd 0a40 2418 68be 866b 2f40 69e9 a4bd
00000050: 52da 9ebc c64e 05bd 30ec 1a3e 74d2 253f
00000060: edd3 af3e 0992 24bd 7657 2640 3e5e ee3e
00000070: e2e4 d9bd d40c e63f d60d b43f 75d1 403d
00000080: 8828 82bf 785f aabe 15de a03f 7a18 3940
00000090: d11f da3e 92ef 8dbd ca19 47bc a61b 37bd
000000a0: 3908 8abe 10e5 dfbd 8089 ecbe 0bef 9d3f
000000b0: a85b 843e ce78 f0be 8ec5 7d3d 3dc4 6cbf
000000c0: 2118 0340 db2f 0e3d 5721 5cbd f903 7c3f
000000d0: 425d ae3e f173 82bf f0cd 373d 1fac e03f
000000e0: da05 11be 1894 0540 7c6e 4cbf e993 13c0
000000f0: 668a 96be 5be0 923e 9e6a f13d 031b 43c0
00000100: 8629 5cbf f615 acbd c78b 43bf 4a2c 3cbf
00000110: 4394 0f3f 876d aabd d2b7 bf3f ebca 0bbf
00000120: bbcb 923f 5075 3940 9118 7ebd 67f4 87be
00000130: afc9 1e3d f33e 9ebe 6396 203f 5512 cf3f
00000140: a7c9 753f 1767 c43f 8035 b23e 2b23 00c0
00000150: 30e7 86bf 204e 86bf af79 1e40 bb20 5f40
00000160: 1194 2fbd 58b7 8abe b73b 673f 9734 ca3f
00000170: 38f8 b13f 1d0f 153d 7095 dbbe 09ff e9bc
00000180: a957 f93c f4cc 99bd a622 de3d c9a3 8d3f
00000190: 8185 973f ead3 2c3f 78c2 d0bc eb50 763f
000001a0: 0d12 9c3b 4f98 93be 42fe 53bf 8014 1cbf
000001b0: a743 74bc 16cc 5a3f 764b 2b3d 1584 513f
000001c0: d531 a23e 4262 d4bd db8f 843d 3b23 23bf
000001d0: 430f 8d3d 9142 fe3d 4505 94be 8f60 42bf
000001e0: b3a3 aebd bd68 2b3d 14e9 863d 2882 c3bf
000001f0: 6deb 6fbe b6c7 183f 72bb c43e 053a 10bd
00000200: bacc 6e3d a09f 5b3f f405 52bf f5eb 92be
00000210: 5137 bc3d baac 7b3e 26d3 023f 125c a8be
00000220: 579b f7be 8a0c 18be e05a 10be 0c77 12bf
00000230: 68c5 143f 6286 5c3d 601e e93c 574c 903e
00000240: e4fe 4ac0 8baf 45be 86e3 f1be 09f8 d53d
00000250: a251 babe f933 92bf a203 91bc 0819 c2bf
00000260: 3ed4 16bf 4ec8 29bb 26bb a13d d043 0d3f
00000270: 647f fb3d 06dd 913e 5ba7 5e3f ac08 5dbf
00000280: 53b0 75be 5421 15bf 0c38 2abd c776 5b3e
00000290: b2d3 263e bd1e f33d 119c 25bf f27a d7be
000002a0: 2bc3 ef3d 9c9b 033e 0415 843f a770 a7be
000002b0: d8a4 d93d db85 9d3e 3161 cebb fb05 52bf
000002c0: 40c5 ccbb 2e8e 4a3f b7a3 93be 615c 843d
000002d0: 737b 1dbf 7d5b 063f 6528 2abf f5a2 db3e
000002e0: 5679 4fbd d618 9b3f 76b1 39bf 11d4 3dbf
000002f0: cc82 2bbf ebd8 683e 03d7 f3be dff3 7abe
00000300: 822d 4ebe a7a3 e73b dcbc 113f 93f2 143d
00000310: 1a7c b23d a027 fd3b 90d6 b43a db2b 7c3f
00000320: 9af6 cd3d 13c0 e63e 1d23 03bd 0b0f 55be
00000330: 4384 4d3d 2eea 86bd 6f37 143f e506 a6be
00000340: 8fd0 b33e 4396 453e 1a96 8e3d a162 d3be
00000350: c629 a13d 4fcc 7c3d 26da dcbd e9d0 65bd
00000360: 42fe 30bf 9407 05be 2727 1e3f 0fef dfbd
00000370: 5551 833d 8b64 e63d 9bf7 b53e 2cd6 f8bd
00000380: 676d f93e de02 bb3e 2d40 fc3d 1b1e 6b3e
00000390: 9c4c 973b 45e6 8fbe 6313 26c0 1e56 7a3f
000003a0: a3c3 96be 85a3 1dbe 15af b1bd 76b6 383f
000003b0: af86 c03c 4c60 86be 64e3 433d 44b6 5c3e
000003c0: 61a3 b3bc 4a99 83be 98db 8f3e ca1c be3e
000003d0: 2fde aec0 a036 fc3d 65c0 0a3d 7bbd e9bd
000003e0: b422 f93e a22a 44be c2cd b23d 188d 83be
000003f0: 3c4a b6bc bcd5 3ebd 93ba bc3d 59ce a13e
1.4871538 0.29226294 -0.2770512 -0.7348129 -0.024742244 0.60863227 0.7836744 0.04643796
-0.254336 0.02796844 -0.073522314 0.0855352 -0.3534861 0.7515284 0.65511024 1.1211748
2.1678207 -0.22665459 2.7409377 -0.08052332 -0.019391213 -0.032545827 0.15129161 0.6477425
0.34341374 -0.040178332 2.5990882 0.46556276 -0.10639359 1.7972665 1.4066722 0.047074754
-1.0168619 -0.33275962 1.2567774 2.892119 0.426024 -0.0693046 -0.012152145 -0.044704102
-0.26959398 -0.10932362 -0.46198654 1.2338575 0.25851178 -0.46967167 0.06195598 -0.92486936
2.0483477 0.034713607 -0.053742733 0.9844356 0.34055525 -1.0191633 0.04487413 1.7552527
-0.14162388 2.087164 -0.79856086 -2.3059027 -0.29402465 0.28686795 0.11787914 -3.0485237
-0.8600086 -0.08402626 -0.7638516 -0.7350508 0.56085604 -0.08321672 1.4977973 -0.54606503
1.1468424 2.8977852 -0.062035147 -0.26553652 0.03876656 -0.309074 0.6272947 1.617747
0.9601082 1.534396 0.34806442 -2.0021465 -1.0539303 -1.0492592 2.476177 3.4863727
-0.042865817 -0.27093005 0.9032549 1.5797299 1.3903875 0.036391366 -0.4288745 -0.028563993
0.030437307 -0.07509795 0.108464524 1.1065608 1.1837617 0.67510855 -0.025483355 0.9621722
0.004762894 -0.2882714 -0.8280984 -0.6096878 -0.014908708 0.8546766 0.041820012 0.81842166
0.31678644 -0.10370304 0.06472751 -0.6372563 0.068876766 0.1241504 -0.2891027 -0.75928587
-0.08527317 0.041847933 0.06587425 -1.5274096 -0.23429652 0.59679735 0.3842426 -0.03521158
0.05830071 0.85790443 -0.82040334 -0.28695646 0.09190238 0.24577609 0.51103437 -0.32882744
-0.48360702 -0.14848533 -0.14097166 -0.572129 0.5811372 0.053839095 0.028456867 0.28183243
-3.1718073 -0.19305246 -0.472439 0.104476996 -0.36390406 -1.1422111 -0.017701928 -1.5163889
-0.58917606 -0.0025906744 0.07897024 0.551816 0.12280157 0.2848894 0.86974114 -0.8634136
-0.23993044 -0.5825398 -0.041557357 0.21432029 0.16291693 0.11871097 -0.64691263 -0.42085987
0.11707147 0.12852329 1.0318913 -0.32703134 0.106271446 0.30766186 -0.006298207 -0.82040375
-0.0062491 0.791232 -0.28835842 0.064629324 -0.61516494 0.5248335 -0.6646789 0.42897764
-0.050652824 1.2116954 -0.7253641 -0.7415171 -0.66996455 0.22738998 -0.47624978 -0.24507092
-0.20134547 0.0070690694 0.569288 0.03636415 0.08715077 0.007725671 0.0013796855 0.9850442
0.10056801 0.45068416 -0.03201591 -0.2080652 0.050174963 -0.06587635 0.57897085 -0.32427135
0.35120055 0.19295602 0.06962223 -0.41286185 0.07869296 0.06171828 -0.10783796 -0.056107435
-0.69137967 -0.12991172 0.6177849 -0.10934269 0.06411997 0.11249646 0.3554047 -0.12150225
0.4871628 0.36525625 0.12316928 0.22960703 0.004617287 -0.2810537 -2.5949333 0.97787654
-0.29446134 -0.15394409 -0.08675972 0.72153413 0.023501722 -0.26245344 0.04782428 0.21553904
-0.021928491 -0.25702888 0.28097224 0.3713134 -5.464622 0.123151064 0.033874888 -0.11413094
0.4865929 -0.19156888 0.087306514 -0.25693583 -0.022252195 -0.04659055 0.09215274 0.31602743

fc3.bias f4 [100]
00000000: c62e bebe 317a 853f 98bb 55bf 7977 723e
00000010: 8f78 bcbf e3bf 0ebe 0559 36bf bf6e bebe
00000020: dc07 51bf 93b1 d5be a81a 18bf 1d6e 3f3e
00000030: 120b 41bf ba46 883e 89fd 86bf e3ce 5dbf
00000040: 734c 8e3d 66bf 4fbe fb6b 21be 377b 11bf
00000050: 262f 20bf 8bc5 08be 268f 643f 6dd7 0bbf
00000060: 5f69 51be b21b fabe 9b08 abbe 64c8 a9bc
00000070: 469f b7bc a8ea 1bbf d4ee 60bf db2d 44bf
00000080: b65e c7be 7f9c acbe 9957 8dbf ab46 afbd
00000090: 2d29 4fbe 5981 83be 02be aabd a2ba fa3e
000000a0: ff30 8abd c1f5 6abe 16cd 98be ba87 18be
000000b0: a96d 2abe d358 273f 0feb c8bd 7464 1dbf
000000c0: 1cfb 73bf 90bb a8bc deaa d4bd 9437 21bf
000000d0: 65d3 f73b 6849 08bf 6992 9abf 4361 99be
000000e0: 1a83 59bf 107b b5bf f51e 6c3e b6e3 8bbf
000000f0: 5e08 8ebf 2623 ea3b 6649 31bf 9428 28be
00000100: c1b2 92bf 5875 0ebf 4dfe 81be 4210 98bf
00000110: 9ecb 89bd 44f6 acbe de82 acbe e5a7 25bf
00000120: d472 5e3f 80bf 3cbe cd02 75bd 57c8 79bd
00000130: dbd6 d6bf 4206 ca3e c7ca 32bd f7a9 893e
00000140: d6a8 9cbd ae66 b5be bab0 54bf c10c 40be
00000150: 2341 55be ec92 a4bd 2455 aabe 82fe 06be
00000160: 01c4 9ebd 9a75 0a3f 712d 84be 8f11 b4bf
00000170: 941f 9ebf c5d2 aabd 3310 5dbf abd1 613f
00000180: 69bc 843e 7f2c 41be 1582 41bf 13e2 cfbf
-0.3714506 1.0427915 -0.8348937 0.23678388 -1.4724292 -0.13940386 -0.71229583 -0.37193868
-0.8165262 -0.4173704 -0.59415674 0.18694349 -0.75407517 0.2661646 -1.0546123 -0.8664381
0.06948175 -0.20287856 -0.15763848 -0.56828636 -0.6257194 -0.13356607 0.8928093 -0.5462559
-0.20450352 -0.48849255 -0.33405003 -0.020725437 -0.022414815 -0.6090493 -0.8786442 -0.7663247
-0.38939446 -0.33713147 -1.1042358 -0.08558401 -0.20230551 -0.25684622 -0.08337022 0.48970515
-0.067476265 -0.2294531 -0.29843968 -0.14895526 -0.16643395 0.6536991 -0.09810459 -0.61481404
-0.9530504 -0.02059725 -0.10384153 -0.6297543 0.007563042 -0.5323701 -1.2075931 -0.29957017
-0.8496567 -1.4178181 0.23058684 -1.0928867 -1.1096303 0.0071453033 -0.6925262 -0.1642173
-1.1460801 -0.556478 -0.2538933 -1.1879961 -0.0672829 -0.33781636 -0.33693594 -0.6470931
0.86893964 -0.18432426 -0.059817124 -0.060982075 -1.6784319 0.394579 -0.043650415 0.26887485
-0.076493904 -0.354299 -0.83082163 -0.18754865 -0.20825629 -0.080358356 -0.33268082 -0.13183025
-0.077522285 0.54085696 -0.2581592 -1.4067858 -1.2353387 -0.08340982 -0.86352843 0.8821055
0.25924996 -0.1886463 -0.75589114 -1.6240867

fc4.weight f4 [1, 100]
00000000: 21b5 5ebe 87a3 5a3e cf44 013d bea1 cabd
00000010: ab3f 57bd ef56 993b 28b3 993d dc9c b03c
00000020: fa3c 383d 3a9c 3c3e 41c6 423d 4bcf 003c
00000030: 6752 d83c d902 f3be 0e06 513d 9b9a 64bd
00000040: d07b 9d3e 1d32 4e3c 5370 85bb ba8f 5bbd
00000050: 128e cf3e 3777 d5bb caf1 013e c7ed 2c3e
00000060: 2bbb 123d 8e82 6b3e cac7 e53c 526c 2e3e
00000070: da38 eabc 1aaa e63e edcd 1d3e b2fa 4b3e
00000080: 0900 1eba fde5 da3b 0c48 71bc bb08 e8bd
00000090: 0d1d 5c3d 9b17 debb 1b28 e93c a996 173e
000000a0: 4de9 ccbd cc0f dc3c f0f8 a1bc 34b4 933c
000000b0: 73c3 533d a1f7 92bc 594a 6dbb d496 863e
000000c0: 2e49 babc 675b 8f3e 2e98 c1bb 7ff0 773d
000000d0: 356f 2f3c df23 303c f722 af3e 1365 76bd
000000e0: 6249 ab3c 0ad3 2a3e f60f 633d 2859 ff3d
000000f0: a22c e23c 5c26 a63d 2391 f93e aa9a 90be
00000100: 816c e73d 6f83 7cbd 80bf b4bc f6ad f03e
00000110: 5e3a 1fbe 4c3c 8d3e e68e 70be c874 253e
00000120: 2c5a 143f 46f2 6b3c 30ee af3c abe4 6ebc
00000130: 0275 9cbd 5f92 ea3e c8a3 00be 0485 21be
00000140: c893 d33c 51d0 8e3e 07d7 013d 8d0c 73bc
00000150: 12e9 213e e65b 083c 7265 71bc f12e ca3c
00000160: c6fa ba3c 0542 3e3e f5c2 c73b 12e1 353e
00000170: e76d 173f 31d9 463d 0625 40ba dfae 763e
00000180: 5a34 d1bd 8034 f7bb 9b4a 523d f1da 06be
-0.21748783 0.21351443 0.03155976 -0.09894131 -0.052550953 0.0046795527 0.075048745 0.021559171
0.044980027 0.1841897 0.04755235 0.0078619225 0.02640648 -0.4746311 0.051031165 -0.055811506
0.30758524 0.01258519 -0.004072228 -0.053603865 0.4053808 -0.0065144557 0.12689891 0.1688758
0.03582303 0.22999021 0.028049368 0.17033508 -0.028591562 0.45051652 0.15410586 0.19919851
-0.0006027227 0.006680249 -0.01472665 -0.1132979 0.053738642 -0.0067777163 0.028461507 0.14803566
-0.10005436 0.026863001 -0.019772023 0.018030263 0.051700067 -0.017940344 -0.0036207645 0.26286948
-0.022739973 0.27999422 -0.005908034 0.06053209 0.010707666 0.01075074 0.34206364 -0.060154986
0.020909015 0.16682068 0.055435143 0.12468177 0.027609173 0.08112785 0.48743543 -0.28243
0.11299992 -0.061648782 -0.02206397 0.47007722 -0.15549609 0.27585065 -0.23492011 0.1615783
0.5795009 0.014401024 0.021475881 -0.014580886 -0.07639505 0.45814797 -0.12562478 -0.15773398
0.025827304 0.27893308 0.031699207 -0.014834535 0.15811566 0.008322692 -0.014733659 0.024680587
0.022824656 0.18579872 0.0060962387 0.17761639 0.5915207 0.048546974 -0.00073297357 0.24090146
-0.102150634 -0.0075441003 0.05134068 -0.13169457
